price_model.pt (torch, 172080 bytes, 5 tensors)

lstm.weight_ih_l0 f4 [400, 4]
0.009409223 0.07438399 0.06765362 -0.00019819314 -0.06943875 0.060690325 -0.08255449 -0.083075374
0.06630319 0.06189562 0.05244978 -0.0023990518 0.07471373 -0.036414035 0.030538527 0.029444912
0.07778617 -0.058026463 0.0006978391 -0.015353214 0.09580725 -0.027328942 -0.08369278 0.009014506
0.08426026 0.10065592 -0.043522496 0.00015014443 -0.017613553 0.0062192706 0.047251184 0.04293779
0.09160738 0.030047983 0.06900179 0.06180616 0.031317066 0.060689554 0.043545686 -0.09676185
0.027645689 0.025882883 -0.057640504 0.10024402 -0.050175924 -0.10010507 -0.07832281 0.05494966
-0.07500864 0.058273364 -0.018525979 -0.0103133535 -0.09813017 0.0031277568 -0.08255405 0.053579945
0.09400841 0.07606856 0.08800317 0.0041870535 -0.007842654 -0.034065597 0.110638484 -0.030564478
-0.065874726 0.0073463484 -0.06222837 0.085924305 -0.07381623 0.061918326 -0.00095856923 0.06949375
0.017257782 0.07020613 -0.027228361 -0.08611473 -0.025697935 -0.07197742 0.012942235 0.07049009
-0.07010067 -0.094623975 -0.08281688 -0.041184966 -0.03861487 0.049215056 0.0010073744 -0.040882926
-0.01734325 -0.062338706 0.052947585 0.06897512 0.0002889989 -0.040029686 -0.002842194 -0.077632315
0.005076856 -0.075020775 -0.034103435 -0.08815573 0.10259785 0.103167914 0.009871399 -0.016885877
-0.023848176 0.05895865 0.05249994 -0.028402712 -0.0078440895 -0.079053886 0.040171117 0.051316418
-0.024871403 -0.040757123 -0.031031607 0.021231597 -0.0034511166 -0.092186555 -0.09450596 -0.0682002
0.027131429 0.063078105 0.0963837 0.06745227 -0.08437436 0.074489795 -0.023670096 -0.08046663
0.015175274 -0.009001997 -0.037140436 -0.06777452 0.04292627 0.0661292 0.059180167 0.07988496
-0.08462754 -0.057297837 -0.07953464 0.031142123 0.05977595 -0.037074 0.052485332 0.0024295007
0.015035219 -0.09845385 -0.10339461 -0.07109426 0.11106988 0.03237478 -0.027817493 -0.07943408
0.014696361 -0.07975039 -0.011407537 0.09406625 0.09305124 -0.062516905 0.057819307 -0.03933969
-0.025736671 0.05377382 -0.024194675 -0.041996095 0.03565004 -0.018781502 0.014749009 -0.06439777
0.050237432 0.020798627 -0.016838964 -0.074567646 0.053077158 -0.022814209 0.0065939557 -0.011391249
-0.030107992 -0.0053372225 0.060811043 0.08302461 0.050111424 -0.0077696317 0.06708627 0.101910874
0.08236468 -0.040399354 0.038492337 -0.08343988 0.049793538 0.11015117 0.061771035 0.05858657
0.09600707 0.0010659164 0.0026704713 -0.038973622 -0.08021592 -0.015015106 -0.08735276 0.03552213
0.05240402 0.053392235 0.031629153 0.10879798 0.047231328 0.029062578 0.041020032 0.10421653
-0.019512309 -0.049004156 -0.028966807 0.013951736 0.006742129 0.016619286 0.033569206 0.024827298
-0.005517804 -0.050597273 -0.039934307 -0.045797404 -0.03904913 0.006826709 0.07307408 0.025022082
-0.018203583 -0.0040109577 0.008956306 0.009043579 -0.03555529 -0.03141844 0.013510936 0.028487863
0.019346219 -0.08708668 -0.064125165 -0.043546356 -0.07171644 -0.057677686 0.015021014 0.015079797
-0.004440099 0.094999224 -0.0359254 0.0051824395 0.09901257 0.10141284 -0.08287469 0.0557483
-0.10763269 -0.016139764 -0.029257203 -0.089620866 0.0022273136 0.016277926 0.08111096 -0.08008626
00000000: 2429 1a3c a256 983d fb8d 8a3d 11d2 4fb9
00000010: e735 8ebd 6b96 783d 5412 a9bd 6c23 aabd
00000020: f8c9 873d 4386 7d3d 95d5 563d 6939 1dbb
00000030: 8303 993d e226 15bd ef2b fa3c 7536 f13c
00000040: 5b4e 9f3d 28ad 6dbd 30ef 363a 0c8c 7bbc
00000050: 9736 c43d f2e0 dfbc 1f67 abbd 94b1 133c
00000060: a590 ac3d b124 ce3d a544 32bd 1770 1d39
00000070: 4c4a 90bc 06cb cb3b 758a 413d 89df 2f3d
00000080: a69c bb3d 3027 f63c cf50 8d3d 7528 7d3d
00000090: 5346 003d 9c95 783d f65c 323d 142b c6bd
000000a0: 3679 e23c 5708 d43c 7318 6cbd bd4c cd3d
000000b0: 4585 4dbd e303 cdbd b667 a0bd e512 613d
000000c0: 219e 99bd 0db0 6e3d cbc3 97bc 57f9 28bc
000000d0: 78f8 c8bd 0dfb 4c3b 1912 a9bd a576 5b3d
000000e0: 7b87 c03d d5c9 9b3d 023b b43d 8d33 893b
000000f0: 7a7e 00bc 5e88 0bbd 6e96 e23d 5b62 fabc
00000100: 54e9 86bd a3b9 f03b 2de3 7ebd 15f9 af3d
00000110: f72c 97bd 129e 7d3d 7e48 7bba bd52 8e3d
00000120: 3160 8d3c 3bc8 8f3d 030e dfbc eb5c b0bd
00000130: 7a84 d2bc e668 93bd ab0b 543c 1c5d 903d
00000140: f190 8fbd 37ca c1bd e59b a9bd 91b1 28bd
00000150: a02a 1ebd ba95 493d e009 843a db74 27bd
00000160: 6e13 8ebc df56 7fbd 91df 583d d442 8d3d
00000170: c784 9739 2bf6 23bd 1a44 3abb b1fd 9ebd
00000180: c15b a63b 7ea4 99bd 0bb0 0bbd fe8a b4bd
00000190: d21e d23d b349 d33d a6bb 213c 4054 8abc
000001a0: 405d c3bc a07e 713d 2d0a 573d ceac e8bc
000001b0: 7f84 00bc 01e7 a1bd 788a 243d 2a31 523d
000001c0: 1dbf cbbc f1f0 26bd ff35 febc e3ed ad3c
000001d0: 212c 62bb 4ecc bcbd 578c c1bd 8cac 8bbd
000001e0: bb42 de3c 182f 813d d164 c53d 6a24 8a3d
000001f0: 77cc acbd 1b8e 983d cae7 c1bc b0cb a4bd
00000200: b6a1 783c 1d7d 13bc 9220 18bd 5ecd 8abd
00000210: 75d3 2f3d bf6e 873d e766 723d ba9a a33d
00000220: 3451 adbd 23b1 6abd 0fe3 a2bd c41d ff3c
00000230: a0d7 743d e8da 17bd dcfa 563d 4238 1f3b
00000240: 4756 763c 2ca2 c9bd 8ec0 d3bd de99 91bd
00000250: 9b78 e33d 6b9b 043d 83e1 e3bc 56ae a2bd
00000260: 01c9 703c 2c54 a3bd aee6 3abc cea5 c03d
00000270: a691 be3d dd08 80bd f0d3 6c3d a822 21bd
00000280: b6d5 d2bc f041 5c3d e933 c6bc 1904 2cbd
00000290: c705 123d aadb 99bc d4a5 713c fae2 83bd
000002a0: c4c5 4d3d e261 aa3c def1 89bc ecb6 98bd
000002b0: 6f67 593d dde4 babc 1c12 d83b 5ca2 3abc
000002c0: 09a5 f6bc dee3 aebb 0015 793d cf08 aa3d
000002d0: a341 4d3d 6598 febb 8764 893d a6b6 d03d
000002e0: d0ae a83d cb79 25bd 24aa 1d3d 87e2 aabd
000002f0: 4ff4 4b3d f096 e13d a003 7d3d 79f8 6f3d
00000300: 5b9f c43d 38b6 8b3a 1303 2f3b cea2 1fbd
00000310: 3f48 a4bd eb01 76bc 01e6 b2bd a77f 113d
00000320: 99a5 563d d1b1 5a3d 928d 013d 7ad1 de3d
00000330: a375 413d a514 ee3c 9f04 283d 7a6f d53d
00000340: 47d8 9fbc 95b8 48bd cc4b edbc d295 643c
00000350: 14ed dc3b 2b25 883c dd7f 093d 9e62 cb3c
00000360: b2ce b4bb 163f 4fbd 2892 23bd 0f96 3bbd
00000370: fbf1 1fbd 96b2 df3b dda7 953d 1cfb cc3c
00000380: ae1f 95bc 5a6e 83bb 78bd 123c 852b 143c
00000390: 6ca2 11bd 9fb0 00bd f95c 5d3c 615f e93c
000003a0: f67b 9e3c 805a b2bd 0e54 83bd aa5d 32bd
000003b0: 12e0 92bd 703f 6cbd b31a 763c 4111 773c
000003c0: 407e 91bb f48e c23d 8326 13bd 74d1 a93b
000003d0: 1ac7 ca3d 89b1 cf3d 35ba a9bd 5458 643d
000003e0: 876e dcbd 8a37 84bc cdac efbc 258b b7bd
000003f0: 1ff8 113b 4959 853c 811d a63d 4404 a4bd

lstm.weight_hh_l0 f4 [400, 100]
-0.0934216 0.02655435 0.07971647 -0.03615787 0.0120001165 -0.04642223 -0.00922042 -0.06586726
0.04456319 -0.031546265 0.028088188 -0.019529596 0.08770315 -0.06783673 -0.045978487 -0.068996005
0.014811822 -0.052846108 0.040978897 -0.036499757 -0.045574937 -0.055261906 -0.06316798 -0.059212204
-0.007137643 -0.036624227 -0.0200521 0.052460834 0.03783027 -0.09103145 0.07276526 0.035377465
0.02354165 0.03327899 -0.06458159 -0.042636734 0.045511566 -0.049251486 0.012209473 -0.014903515
-0.028495641 -0.051046688 0.012134128 -0.034621827 -0.019128943 0.02265817 0.09613156 -0.03835728
-0.100878336 0.055142768 0.043741956 -0.06960874 0.0744017 -0.07726827 0.025179511 -0.049653187
0.045426827 -0.0077697267 0.05858681 -0.10425566 -0.033972338 -0.040096387 0.111240424 0.039530564
0.03310026 0.008432829 -0.054911338 -0.038126454 -0.0784818 -0.059035316 -0.071588285 0.02907851
-0.095198974 0.060863186 -0.052846927 0.075476885 -0.07416299 -0.016289474 -0.0012336737 0.09418227
0.07220545 0.06887151 -0.07860212 -0.041897867 0.11016926 0.060122106 0.05242536 0.086264625
0.04701775 0.063090935 -0.011642558 -0.10057085 -0.08647772 -0.08331397 -0.010627947 -0.08850145
0.07844572 0.0348742 -0.023743939 -0.018377673 -0.035306256 -0.10919333 -0.0412911 0.002610879
-0.0007570425 0.0734601 -0.023568254 -0.04429946 -0.04574904 -0.08363584 0.01046716 0.03960704
-0.040701624 -0.030143186 -0.02603976 -0.046427187 -0.091511995 -0.05266361 -0.026308825 0.049818847
-0.027588798 0.052374423 0.07775875 -0.069156505 0.0030704276 -0.10178902 -0.013210279 -0.018923858
0.10928289 0.011454654 -0.09516171 0.076016314 0.07520381 -0.1068584 -0.036046978 -0.029954672
0.019602671 0.05541992 0.06695501 0.072568454 -0.044127267 0.037099145 0.09859601 0.047679447
-0.054786954 -0.052045543 0.03981446 0.07831855 -0.025107693 -0.09669781 0.11059498 0.020377383
-0.028561266 0.09332393 0.019414091 -0.050131794 -0.035089273 0.005786201 -0.07906626 -0.024817007
-0.024486601 0.0002676345 0.07650935 0.0034847958 0.020720383 -0.012123389 0.033517193 -0.015616838
0.0761549 0.103945374 0.09751224 0.08610329 -0.008517746 0.06300001 0.027392931 -0.081257656
-0.06877123 0.08797589 0.041425303 0.063943826 -0.08713173 0.084559694 0.09451007 0.101490565
-0.054060657 0.09132757 -0.08073834 0.0013059143 0.09367663 0.044664923 0.020306814 -0.04576756
0.04121872 0.09195982 0.028447296 0.10773264 -0.032124124 0.039942183 0.0631919 -0.08930607
-0.016643131 0.045534708 -0.005791441 0.11387856 -0.099728964 -0.0048880964 -0.105845354 0.0131703345
-0.028988164 0.030734029 -0.083662875 0.08844394 -0.051814616 0.07818001 -0.045544975 0.06699763
0.059187166 0.015221293 0.055186458 0.03142543 -0.010930699 -0.024800925 0.042944565 0.01641481
-0.022707336 -0.057924923 -0.05373372 -0.026407314 0.0021650658 0.030711165 0.08670092 -0.032556698
0.07783933 0.018537108 -0.09914897 -0.00012952005 -0.02740917 0.0664223 0.086771004 0.098526075
-0.060204994 -0.010879152 -0.031146279 0.00404805 -0.03350361 -0.010370966 -0.08230595 0.013568791
-0.05188616 -0.00498709 0.08000387 0.08558365 0.092286855 0.02633009 -0.0052804905 0.038444225
00000000: d353 bfbd 8288 d93c 6342 a33d 461a 14bd
00000010: 239c 443c 3c25 3ebd 3f11 17bc 6ae5 86bd
00000020: e487 363d a836 01bd 3319 e63c 88fc 9fbc
00000030: b69d b33d fced 8abd f053 3cbd c74d 8dbd
00000040: 49ad 723c 2975 58bd 7dd9 273d c580 15bd
00000050: c9ac 3abd 4f5a 62bd 375e 81bd 7f88 72bd
00000060: e4e2 e9bb 4903 16bd 4d44 a4bc 2ce1 563d
00000070: eaf3 1a3d b26e babd f405 953d f6e7 103d
00000080: 6bda c03c 8d4f 083d 5a43 84bd dba3 2ebd
00000090: 566a 3a3d edbb 49bd 3e0a 483c df2d 74bc
000000a0: b16f e9bc 5516 51bd 39ce 463c 9ecf 0dbd
000000b0: 4db4 9cbc a09d b93c a0e0 c43d 861c 1dbd
000000c0: 4d99 cebd 62dd 613d c42a 333d 078f 8ebd
000000d0: eb5f 983d d43e 9ebd 4345 ce3c 2461 4bbd
000000e0: 7b11 3a3d 3199 febb b9f8 6f3d fe83 d5bd
000000f0: 9426 0bbd 1c3c 24bd 05d2 e33d cdea 213d
00000100: 2394 073d d929 0a3c b6ea 60bd 7c2a 1cbd
00000110: 11bb a0bd 04cf 71bd e19c 92bd 0e36 ee3c
00000120: aef7 c2bd ad4b 793d 0576 58bd a093 9a3d
00000130: c4e2 97bd 8171 85bc 38b3 a1ba a2e2 c03d
00000140: 73e0 933d 820c 8d3d 26fa a0bd 199d 2bbd
00000150: 6ca0 e13d 9942 763d f9bb 563d 82ab b03d
00000160: af95 403d d235 813d 6dc0 3ebc 17f8 cdbd
00000170: 3b1b b1bd 84a0 aabd d720 2ebc 4040 b5bd
00000180: 26a8 a03d 40d8 0e3d a682 c2bc c68c 96bc
00000190: 4b9d 10bd c1a0 dfbd db20 29bd 481b 2b3b
000001a0: 4374 46ba 4072 963d 3612 c1bc 5a73 35bd
000001b0: 5863 3bbd 4449 abbd 737e 2b3c fe3a 223d
000001c0: bfb6 26bd d8ee f6bc 5651 d5bc 6f2a 3ebd
000001d0: a46a bbbd ccb5 57bd 9b85 d7bc d90e 4c3d
000001e0: e701 e2bc 9086 563d fb3f 9f3d eda1 8dbd
000001f0: 3a39 493b c376 d0bd ed6f 58bc 3506 9bbc
00000200: b5cf df3d 4dac 3b3c 25e4 c2bd 71ae 9b3d
00000210: 7504 9a3d 94d8 dabd ffa5 13bd 8063 f5bc
00000220: c895 a03c ffff 623d b51f 893d c59e 943d
00000230: cbbe 34bd 46f5 173d b4ec c93d 864b 433d
00000240: 4968 60bd b52d 55bd 7d14 233d 7a65 a03d
00000250: a6ae cdbc 8009 c6bd 9f7f e23d 78ee a63c
00000260: 51f9 e9bc 9e20 bf3d 4d0a 9f3c ff56 4dbd
00000270: c5b9 0fbd 2c9a bd3b 7eed a1bd 094d cbbc
00000280: 2098 c8bc 4b51 8c39 efb0 9c3d 2c61 643b
00000290: cbbd a93c 2ea1 46bc 5349 093d c4dd 7fbc
000002a0: 1af7 9b3d 50e1 d43d 7fb4 c73d ec56 b03d
000002b0: 048e 0bbc 2606 813d 2467 e03c 6a6a a6bd
000002c0: eed7 8cbd b42c b43d 94ad 293d fbf4 823d
000002d0: 1f72 b2bd a22d ad3d 7f8e c13d 49da cf3d
000002e0: b56e 5dbd f309 bb3d 255a a5bd 362b ab3a
000002f0: 88d9 bf3d 91f2 363d 7a5a a63c c476 3bbd
00000300: f6d4 283d 6e55 bc3d 4e0a e93c eea2 dc3d
00000310: 9694 03bd 6a9a 233d c16a 813d 1ae6 b6bd
00000320: 2d57 88bc 9a82 3a3d 21c6 bdbb 2a39 e93d
00000330: b33e ccbd 532c a0bb 73c5 d8bd 63c8 573c
00000340: 9678 edbc eec5 fb3c 7157 abbd 1922 b53d
00000350: 903b 54bd d71c a03d 5e8d 3abd 0e36 893d
00000360: 3e6e 723d bb62 793c 320b 623d f4b7 003d
00000370: ad16 33bc 4f2b cbbc a4e6 2f3d 5a78 863c
00000380: bc04 babc af42 6dbd e417 5cbd 2754 d8bc
00000390: c7e3 0d3b fb95 fb3c 4090 b13d 2c5a 05bd
000003a0: 3a6a 9f3d 22db 973c 9d0e cbbd c6cf 07b9
000003b0: 3289 e0bc 6a08 883d ffb4 b13d 0ac8 c93d
000003c0: 8399 76bd 793e 32bc 7b26 ffbc 81a5 843b
000003d0: 153b 09bd fcea 29bc 0690 a8bd a24f 5e3c
000003e0: 9586 54bd be6a a3bb 12d9 a33d 7b46 af3d
000003f0: e400 bd3d 33b2 d73c f707 adbb b177 1d3d

lstm.bias_ih_l0 f4 [400]
-0.013241185 -0.059370793 -0.02157785 0.041112162 -0.043999758 -0.059890423 0.051434606 0.018852362
0.02268891 -0.018377649 0.055377815 0.06499776 -0.045097254 0.08671626 -0.08122052 0.07091175
-0.040525127 0.023057451 -0.027596058 0.012321764 -0.06742386 -0.02977326 -0.034644257 -0.06045367
-0.07499705 0.06531981 0.11030684 0.08604017 -0.037595432 0.030313507 0.052766148 0.06978892
-0.059897795 -0.10244745 -0.026102003 0.037005622 -0.097212285 -0.06359421 0.036541358 -0.003761382
0.06436649 -0.03450363 0.05865413 0.058626957 0.07493278 0.008795676 -0.08740037 -0.06288293
0.09938894 -0.0843165 -0.074306026 -0.013070659 -0.06457871 0.09919231 -0.046195082 0.011764266
0.07897894 0.034518868 0.060607 -0.066637196 -0.040446777 0.0061714733 0.0765732 -0.016077448
-0.0645554 -0.039759517 0.013319616 -0.06641285 0.10395159 0.09469493 0.064952 -0.09509174
0.10870992 -0.011642225 0.11054633 -0.023935704 0.07891792 -0.0996658 -0.0058860695 -0.02353351
-0.083386704 0.048090573 0.0027905684 -0.06963096 0.060997628 -0.07955332 0.08087334 0.08509751
0.044249162 0.010352026 0.05754464 -0.052971363 0.044217117 0.010788748 0.07620416 0.030235734
0.08648403 0.06148592 0.07628558 0.05560129 0.0115666455 0.05116646 -0.07732372 0.0052418946
0.09471506 -0.021869337 0.056258783 -0.04047456 0.09094622 -0.08988261 0.056000784 0.042489957
-0.06560618 -0.06525949 0.11013378 -0.06313104 -0.021244386 0.011174476 0.06789924 0.040887482
-0.07579669 0.032040164 -0.077233925 -0.08781181 -0.03611248 -0.07201625 0.035943262 -0.077034384
-0.048363574 -0.076866105 0.0010967853 0.030232854 0.0443025 -0.07601636 0.027952792 0.04166996
0.013573588 0.033057358 -0.05353158 -0.050241865 -0.024786657 0.012927047 -0.06005403 0.05160805
0.04736155 0.09334751 -0.05924731 -0.0020017002 -0.05108125 0.029225107 -0.061659694 -0.039955582
-0.050744068 0.020818813 0.015938327 0.068849914 0.003344935 0.08642158 0.011320045 0.06588288
-0.08405163 0.06815703 0.0466657 0.015305131 -0.07331491 -0.081119 -0.05018241 -0.047351632
-0.082619704 0.09154123 0.09717086 0.047434524 0.105297245 0.057684354 -0.05536508 -0.07943045
0.023698596 0.0112142535 0.0056496076 0.04836488 0.06849052 -0.046979602 0.027731357 0.008737219
-0.05638043 -0.03012459 -0.05497473 0.01841289 0.05030598 0.015562077 -0.075190686 0.06314407
0.107412755 0.07667539 0.079881914 0.04728545 0.07512264 -0.003322074 -0.047129408 0.05561854
-0.04618259 -0.042834893 0.09440611 0.025960265 0.021127068 -0.08866758 0.04708005 0.06866146
-0.06529156 -0.023568936 0.09058836 0.02573784 -0.080973044 0.040592905 -0.08272647 -0.030214636
-0.105552755 0.045517214 0.07000554 7.486046e-05 0.058629733 -0.06211522 -0.083523214 0.08901426
-0.05116377 -0.08440616 0.10116742 -0.057630353 0.08038586 -0.04610171 0.016352214 0.03255327
-0.109864146 -0.0035639142 0.017177839 -0.06751352 -0.0064611183 -0.05672915 -0.06654064 0.023483193
-0.095437974 0.05002207 -0.06846844 0.027198415 -0.031014811 0.08665676 0.050305385 -0.05586063
-0.04559215 -0.07490268 0.051634498 0.01733374 -0.06516446 0.044066712 0.05882175 0.04147821
00000000: 8ef1 58bc ca2e 73bd 08c4 b0bc 3a65 283d
00000010: 1739 34bd a94f 75bd 18ad 523d 4570 9a3c
00000020: 18de b93c b98c 96bc d9d3 623d 8c1d 853d
00000030: e6b7 38bd 4b98 b13d f256 a6bd 2e3a 913d
00000040: adfd 25bd fbe2 bc3c 2111 e2bc 39e1 493c
00000050: 8515 8abd 0de7 f3bc 23e7 0dbd 449e 77bd
00000060: 0e98 99bd 64c6 853d 8de8 e13d d435 b03d
00000070: abfd 19bd 0854 f83c 5121 583d 7eed 8e3d
00000080: 6457 75bd f8cf d1bd ded3 d5bc 3593 173d
00000090: 3c17 c7bd ae3d 82bd 64ac 153d 8581 76bb
000000a0: 94d2 833d ae53 0dbd 503f 703d d222 703d
000000b0: 5b76 993d bd1b 103c f7fe b2bd c4c8 80bd
000000c0: 6e8c cb3d 21ae acbd c22d 98bd 5126 56bc
000000d0: d841 84bd 5625 cb3d 0e37 3dbd e8be 403c
000000e0: b6bf a13d a863 0d3d 0c3f 783d 1579 88bd
000000f0: 85ab 25bd 123a ca3b 69d2 9c3d dab4 83bc
00000100: 9f35 84bd e0da 22bd 853a 5a3c 7603 88bd
00000110: 92e4 d43d 6aef c13d 8e05 853d 75bf c2bd
00000120: 4ea3 de3d 08bf 3ebc 1d66 e23d cf14 c4bc
00000130: b89f a13d 951d ccbd eedf c0bb 59c9 c0bc
00000140: a6c6 aabd 9ffa 443d f8e1 363b ad9a 8ebd
00000150: a6d8 793d daec a2bd eca0 a53d 9a47 ae3d
00000160: 9c3e 353d 8b9b 293c eeb3 6b3d 80f8 58bd
00000170: 021d 353d 4ac3 303c ed10 9c3d eeb0 f73c
00000180: 8a1e b13d a9d8 7b3d 9d3b 9c3d 2ebe 633d
00000190: 0782 3d3c ec93 513d e65b 9ebd 33c4 ab3b
000001a0: f8f9 c13d 5327 b3bc 9c6f 663d a7c8 25bd
000001b0: 0342 ba3d 6014 b8bd 1461 653d f309 2e3d
000001c0: 885c 86bd c4a6 85bd d28d e13d d94a 81bd
000001d0: b508 aebc 2615 373c c20e 8b3d a279 273d
000001e0: 4c3b 9bbd 8c3c 033d d22c 9ebd aed6 b3bd
000001f0: aeea 13bd 417d 93bd 3e39 133d 34c4 9dbd
00000200: e218 46bd fa6b 9dbd 02c2 8f3a e4aa f73c
00000210: 8a76 353d 77ae 9bbd 41fd e43c 1fae 2a3d
00000220: c163 5e3c 2767 073d ee43 5bbd 6aca 4dbd
00000230: 630d cbbc f7cb 533c 37fb 75bd f662 533d
00000240: 2ffe 413d fb2c bf3d 4fad 72bd f52e 03bb
00000250: 933a 51bd 7e69 ef3c e08e 7cbd 77a8 23bd
00000260: 03d9 4fbd 378c aa3c 1891 823c 2f01 8d3d
00000270: b236 5b3b ccfd b03d b677 393c 9aed 863d
00000280: 4323 acbd ea95 8b3d 8824 3f3d 5fc2 7a3c
00000290: 2126 96bd b821 a6bd 128c 4dbd c9f3 41bd
000002a0: 8534 a9bd f879 bb3d 8401 c73d b44a 423d
000002b0: 15a6 d73d 6e46 6c3d 7ec6 62bd 6fac a2bd
000002c0: 8f23 c23c fdbb 373c 5820 b93b 411a 463d
000002d0: c244 8c3d af6d 40bd df2c e33c 8d26 0f3c
000002e0: 2aef 66bd d8c7 f6bc 2f2d 61bd a1d6 963c
000002f0: a50d 4e3d 15f8 7e3c 93fd 99bd ae51 813d
00000300: 38fb db3d fd07 9d3d 2199 a33d 63ae 413d
00000310: e6d9 993d 27b7 59bb c40a 41bd 44d0 633d
00000320: f529 3dbd a473 2fbd fe57 c13d 9faa d43c
00000330: ac12 ad3c 5997 b5bd 03d7 403d 619e 8c3d
00000340: 95b7 85bd a413 c1bc 6486 b93d 2ad8 d23c
00000350: 32d5 a5bd bf44 263d 7f6c a9bd af84 f7bc
00000360: 0b2c d8bd 4270 3a3d 115f 8f3d 67fe 9c38
00000370: bb25 703d 876c 7ebd 380e abbd 1c4d b63d
00000380: 1a91 51bd 23dd acbd dd30 cf3d ce0d 6cbd
00000390: 57a1 a43d 26d5 3cbd 14f5 853c 9456 053d
000003a0: 7400 e1bd 8f90 69bb 8ab8 8c3c 8744 8abd
000003b0: cab7 d3bb d35c 68bd 7646 88bd d35f c03c
000003c0: fc74 c3bd f1e3 4c3d 2e39 8cbd 36cf de3c
000003d0: c612 febc 1979 b13d 050d 4e3d 1ece 64bd
000003e0: d6be 3abd 9466 99bd b27e 533d 7dff 8d3c
000003f0: f274 85bd 4c7f 343d 13ef 703d 0ee5 293d

lstm.bias_hh_l0 f4 [400]
0.03749734 0.06520939 0.028030476 0.08329259 0.08085362 -0.031287737 0.043542147 0.05161702
-0.052058216 -0.09397712 0.09427221 0.0610056 -0.020856457 -0.06673914 -0.08324669 -0.059503734
0.07388565 0.025255054 -0.06912104 -0.05675339 0.03344774 0.047774598 0.030450638 0.09636079
-0.07642614 0.0900346 -0.016279938 0.08575694 -0.061667725 -0.04436317 0.0022967823 0.055798557
-0.047608852 -0.02827439 0.054476216 -0.020110413 -0.09666735 -0.011207021 0.071728975 0.024970954
0.032218203 0.037868544 -0.090187825 -0.03330457 0.024955802 0.016356286 0.061713014 -0.01757684
-0.08784194 -0.02665041 0.028975045 -0.07528286 -0.0016560735 0.08741705 0.019553393 0.009242655
-0.046610028 0.043431178 -0.02794247 -0.079842806 0.06476 -0.07362239 -0.03845536 -0.056725238
-0.0385266 0.058740627 0.057683576 0.08710254 -0.055698976 -0.026925124 -0.07268325 0.093649276
0.07919276 0.01893323 -0.0867295 0.10341791 -0.023942307 0.031864386 0.042394206 0.0993201
0.08812076 0.10457816 -0.06737087 -0.006934917 0.033087123 -0.0019717626 -0.0024948705 0.06962001
0.028465386 -0.019726545 0.044861667 -0.046265285 -0.08655966 0.05106017 0.05419001 0.037303165
0.08869605 -0.04669238 0.008332873 -0.008700107 -0.08365063 0.029259602 -0.0058345417 0.020484103
0.093951926 0.07400123 0.028572464 -0.052438896 0.032586265 0.08337389 -0.0062405006 0.075788096
0.020067347 -0.041999266 -0.050719514 0.057275813 -0.040473048 -0.021029716 -0.059262395 0.07745075
0.048142098 0.0816146 -0.038961798 -0.044260275 -0.007907667 0.053947266 -0.06741899 0.05851881
-0.058462925 -0.0004918366 0.10755354 -0.028990716 0.07112156 -0.00998979 0.08456233 0.002754462
0.08003157 0.11073818 0.028938856 0.07448403 -0.0030090357 -0.059292085 -0.029345227 0.050123744
-0.0071060215 -0.07905394 -0.0304943 -0.074776135 -0.07265792 0.053853188 -0.031123444 0.10895022
0.042193014 0.016668364 0.10637721 0.025283866 -0.020312982 -0.04012946 -0.02859736 -0.004861703
-0.024201637 0.015839586 -0.017381344 0.094436266 -0.077651255 0.103208445 -0.019959854 -0.008463189
-0.06382245 0.014223587 0.0782838 0.06550685 0.029728377 0.018820962 0.048557837 -0.07172604
-0.075752005 -0.026907103 -0.08283395 -0.07523242 -0.05931474 -0.032908935 -0.086937495 -0.08078249
-0.016498271 -0.08024973 0.053921085 -0.04841386 -0.0643049 -0.07683584 0.060023047 -0.07111349
-0.023273667 -0.064893395 -0.0019970965 -0.04269082 0.06767785 -0.0968823 0.05878679 -0.009408985
-0.021203717 -0.06917224 0.061145745 -0.0114379795 -0.09960242 0.02078954 -0.022385303 -0.06302202
0.056955278 0.05456605 0.02836816 0.054102525 -0.05490451 0.08753265 0.058301035 0.03186685
-0.011108961 0.07616178 0.07763851 -0.0005038044 -0.03664035 0.077763215 0.05575724 0.040328108
-0.0785137 0.02356231 -0.015203543 -0.05879333 0.014563318 0.020209443 -0.068629086 0.08158759
-0.106360205 -0.08652659 0.017218996 -0.059380304 -0.07768999 0.07384742 -0.053561475 0.018422976
0.049151458 0.089592285 0.049159 0.036634844 0.045022335 0.050714877 0.07278658 0.041851062
-0.09705103 -0.087853886 0.09594829 0.030568125 -0.0075530587 0.009181391 0.03651381 0.03476977
00000000: d096 193d 808c 853d 2ba0 e53c 4e95 aa3d
00000010: 9596 a53d 9227 00bd 4059 323d 5e6c 533d
00000020: ff3a 55bd 1477 c0bd ca11 c13d 02e1 793d
00000030: 29db aabc 88ae 88bd 3e7d aabd 30ba 73bd
00000040: 5c51 973d b0e3 ce3c 558f 8dbd 3e76 68bd
00000050: 7f00 093d 4caf 433d 9e73 f93c ce58 c53d
00000060: 4f85 9cbd 0f64 b83d 815d 85bc 56a1 af3d
00000070: 4c97 7cbd 28b6 35bd 9d85 163b 078d 643d
00000080: 8001 43bd b29f e7bc 7422 5f3d 98be a4bc
00000090: 88f9 c5bd a79d 37bc a4e6 923d e38f cc3c
000000a0: 3cf7 033d 0c1c 1b3d 65b4 b8bd 5f6a 08bd
000000b0: 1c70 cc3c 9efd 853c c9c6 7c3d 4efd 8fbc
000000c0: 7ae6 b3bd f651 dabc 135d ed3c e62d 9abd
000000d0: 9b10 d9ba b607 b33d 702e a03c 816e 173c
000000e0: 28ea 3ebd e4e4 313d 9be7 e4bc a084 a3bd
000000f0: e4a0 843d 56c7 96bd 5e83 1dbd b958 68bd
00000100: 11ce 1dbd 039a 703d 9d45 6c3d d162 b23d
00000110: 9c24 64bd 1492 dcbc f5da 94bd 31cb bf3d
00000120: d02f a23d dc19 9b3c 3c9f b1bd c5cc d33d
00000130: a822 c4bc 3b84 023d 8ca5 2d3d 5668 cb3d
00000140: a878 b43d 132d d63d bdf9 89bd 4d3e e3bb
00000150: 5d86 073d b038 01bb fb80 23bb f094 8e3d
00000160: 3e30 e93c 9099 a1bc dec0 373d ab80 3dbd
00000170: 3146 b1bd 7824 513d 58f6 5d3d 34cb 183d
00000180: 46a6 b53d 8240 3fbd 9a86 083c e58a 0ebc
00000190: 0651 abbd d5b1 ef3c af2f bfbb 47ce a73c
000001a0: de69 c03d f58d 973d cd10 ea3c 2bca 56bd
000001b0: 2d79 053d eebf aa3d 1d7d ccbb ca36 9b3d
000001c0: 4764 a43c 6c07 2cbd 44bf 4fbd 0b9a 6a3d
000001d0: 11c7 25bd 8346 acbc 20bd 72bd 809e 9e3d
000001e0: a630 453d 8e25 a73d 6896 1fbd 434a 35bd
000001f0: 298f 01bc cff7 5c3d f812 8abd 6bb1 6f3d
00000200: d276 6fbd 98ee 00ba 0845 dc3d f07d edbc
00000210: 2ea8 913d 37ac 23bc 042f ad3d 3484 343b
00000220: 97e7 a33d b3ca e23d 2e11 ed3c 158b 983d
00000230: 3e33 45bb 42dc 72bd 6765 f0bc 8e4e 4d3d
00000240: a1d9 e8bb 08e7 a1bd 2fcf f9bc 3b24 99bd
00000250: adcd 94bd 2995 5c3d 98f6 febc 4b21 df3d
00000260: 95d2 2c3d 188c 883c 4bdc d93d 1c20 cf3c
00000270: 6967 a6bc ca5e 24bd 0345 eabc ec4e 9fbb
00000280: 8342 c6bc 05c2 813c 5263 8ebc cd67 c13d
00000290: 9f07 9fbd f35e d33d d982 a3bc 30a9 0abc
000002a0: 58b5 82bd 0c0a 693c 4253 a03d 7528 863d
000002b0: ed88 f33c 6b2e 9a3c 95e4 463d 1ae5 92bd
000002c0: de23 9bbd 496c dcbc d9a4 a9bd 7413 9abd
000002d0: 03f4 72bd 85cb 06bd 490c b2bd 4a71 a5bd
000002e0: 6227 87bc f859 a4bd 5bdc 5c3d 9d4d 46bd
000002f0: 4ab2 83bd 1c5c 9dbd bada 753d f3a3 91bd
00000300: 6ba8 bebc d4e6 84bd b8e1 02bb 92dc 2ebd
00000310: af9a 8a3d 3a6a c6bd 6bca 703d 2528 1abc
00000320: 6bb3 adbc 2daa 8dbd f673 7a3d 5d66 3bbc
00000330: 5bfc cbbd d34e aa3c 6261 b7bc b011 81bd
00000340: f049 693d a780 5f3d 5864 e83c 9c9a 5d3d
00000350: 8de3 60bd 5144 b33d 11cd 6e3d d086 023d
00000360: 5c02 36bc b5fa 9b3d f000 9f3d be11 04ba
00000370: 3114 16bd 5242 9f3d b461 643d 162f 253d
00000380: cacb a0bd bf05 c13c 4818 79bc 46d1 70bd
00000390: fc9a 6e3c 468e a53c 688d 8cbd 6517 a73d
000003a0: 61d3 d9bd da34 b1bd da0e 8d3c c338 73bd
000003b0: ee1b 9fbd 513d 973d 4763 5bbd c8eb 963c
000003c0: 0a53 493d 297c b73d f35a 493d 6b0e 163d
000003d0: 5769 383d 67ba 4f3d 2111 953d 056c 2b3d
000003e0: b1c2 c6bd bdec b3bd 8980 c43d 016a fa3c
000003f0: a67f f7bb 8c6d 163c 818f 153d bf6a 0e3d

fc.weight f4 [1, 100]
-0.010131418 -0.10518775 0.01073715 -0.08275676 0.0037787298 -0.0967752 -0.071964934 0.089102946
-0.0024917752 -0.07376316 0.026312403 -0.05895103 0.0018978782 -0.050599657 -0.069603994 -0.033123594
-0.011837811 0.07010322 0.04705467 0.049368013 0.07140364 0.00900645 -0.020003257 0.007085793
0.055993617 -0.083289966 0.029219192 0.0041523036 0.042873424 0.04125382 -0.037651047 -0.06499428
-0.065136045 0.089805216 0.043454807 0.04472262 0.030073099 0.031654194 0.0534804 0.00017235993
-0.09699613 0.013701868 0.025117656 0.07025784 -0.007865373 0.05039725 0.1012916 -0.019315906
0.01845667 -0.032053582 0.088890724 -0.08051795 0.0027370935 0.029134553 0.048263896 0.036549196
0.06454845 0.03236354 -0.0022797512 0.075103186 0.046320964 -0.034157094 -0.05379554 0.07270033
0.08201442 0.08357394 -0.09535811 0.019098349 0.08710464 0.020349678 0.011594498 -0.006085145
-0.093258806 0.10098916 -0.039291076 0.053951893 -0.070124604 -0.072853856 -0.10348449 -0.009833373
0.057143178 -0.0112577565 0.035585303 -0.08996005 -0.07469816 -0.045891065 0.05108369 -0.040846795
0.069505386 0.053823512 0.024580933 -0.028102286 -0.051817816 0.09642238 -0.051114984 0.0943563
0.05130334 -0.07611321 -0.081947446 -0.054465774
00000000: 3ffe 25bc ad6c d7bd dfea 2f3c 607c a9bd
00000010: 91a4 773b 1332 c6bd 5a62 93bd 9b7b b63d
00000020: 0d4d 23bb 2411 97bd 1c8d d73c a376 71bd
00000030: 3ac2 f83a 9641 4fbd 8a8c 8ebd 9bac 07bd
00000040: 61f3 41bc 4792 8f3d 66bc 403d 1d36 4a3d
00000050: 123c 923d ca8f 133c dfdd a3bc f12f e83b
00000060: 9059 653d ee93 aabd 165d ef3c 0c10 883b
00000070: 0b9c 2f3d c4f9 283d fc37 1abd b91b 85bd
00000080: 0c66 85bd cceb b73d abfd 313d 112f 373d
00000090: dc5b f63c d4a7 013d 440e 5b3d 84bb 3439
000000a0: e8a5 c6bd cd7d 603c 8bc3 cd3c 58e3 8f3d
000000b0: c4dd 00bc 596d 4e3d f871 cf3d 643c 9ebc
000000c0: 7132 973c 9e4a 03bd 570c b63d 98e6 a4bd
000000d0: cf60 333b 96ab ee3c 5db0 453d 9cb4 153d
000000e0: fa31 843d a28f 043d e167 15bb b3cf 993d
000000f0: 0dbb 3d3d 4fe8 0bbd b658 5cbd e9e3 943d
00000100: 2df7 a73d d028 ab3d 1d4b c3bd 2474 9c3c
00000110: eb63 b23d 5eb4 a63c d9f6 3d3c e565 c7bb
00000120: 79fe bebd 68d3 ce3d aeef 20bd a9fc 5c3d
00000130: 7d9d 8fbd 6734 95bd adef d3bd 281c 21bc
00000140: f70e 6a3d 7472 38bc e5c1 113d fa3c b8bd
00000150: 59fb 98bd 45f8 3bbd 223d 513d f84e 27bd
00000160: d758 8e3d 0b76 5c3d f45d c93c c436 e6bc
00000170: eb3e 54bd 1979 c53d f25d 51bd e03d c13d
00000180: 7323 523d 3ee1 9bbd 10d4 a7bd 8117 5fbd
