price_model.pt (torch, 172080 bytes, 5 tensors)

lstm.weight_ih_l0 f4 [400, 4]
000000 af 91 42 3d 76 5e 92 bd 64 02 b1 bd e3 73 c6 3b
       0.047502216 -0.07146923 -0.08643034 0.0060562952
000010 05 cf 38 3d 01 81 96 bd 2b 91 b9 3d 80 f9 83 bd
       0.045119304 -0.07348824 0.09060892 -0.06444073
000020 61 e5 91 3d f2 a1 73 3d 45 26 03 bd 20 05 90 b8
       0.07123829 0.059480615 -0.03201892 -6.86741e-05
000030 54 78 d7 3b cf 0a 4b 3d d0 d3 88 3d cf 2f 17 bd
       0.0065756235 0.049570855 0.06681025 -0.03691083
000040 8d 88 a9 3c 24 0a c8 3d 28 23 01 bd d8 fa dc 3d
       0.020694995 0.09767559 -0.03152767 0.10790032
000050 7e 6e f0 bc 8c f4 63 bd 6f bb 13 3d 88 b8 8c bd
       -0.029349562 -0.05565314 0.036067422 -0.06871134
000060 0f 60 9b bd 75 7a e4 3c 24 5e aa 3d d7 fd d6 3d
       -0.07586681 0.027890423 0.08318737 0.10497635
000070 68 e6 c7 bc 01 d4 22 bd 74 7e ce bb c1 5f b6 bd
       -0.024401858 -0.039752964 -0.0063016955 -0.08904982
000080 d4 a7 85 bd ce a9 01 bd 49 20 ae bd 74 18 ae bd
       -0.06526151 -0.03165608 -0.08502252 -0.08500758
000090 ff 4c 0e bd 2a 2f 76 3d 3c c3 66 bc cf 76 b4 3d
       -0.034741398 0.060103573 -0.014084633 0.088117234
0000a0 7d f5 14 3d 01 6f 32 3d 3a 34 d0 3d dd d0 cf bb
       0.03636693 0.043562893 0.101662114 -0.006342037
0000b0 01 ae 49 bd a2 6b ac 3d a3 e7 b9 3d c6 d8 25 bd
       -0.04923821 0.08418967 0.09077384 -0.040489934
0000c0 4a 05 c8 3c 64 9a 69 bd 68 74 ca bd 09 21 4a bd
       0.024416585 -0.057032004 -0.09885484 -0.04934791
0000d0 f1 63 95 ba 10 9f 8e bd 45 d8 c0 3d 84 3c d5 3d
       -0.0011397583 -0.069639325 0.0941625 0.10411933
0000e0 63 82 d4 bc 42 f4 01 3d 3a 2a 47 3d 1e bc eb bc
       -0.02594108 0.031727083 0.048624255 -0.028776225
0000f0 a2 2c a5 bd b2 99 a4 3c a1 86 86 bd ae ef eb 3c
       -0.08065154 0.020092819 -0.06568647 0.028800812
000100 1b ce fe 3c 3f c7 e2 bc ac 25 83 bd b3 50 9b bc
       0.031104138 -0.027682899 -0.0640367 -0.018959379
000110 5b be 71 3d 52 03 2f 3d fa 0b 91 3b 0b 2f 5e 3b
       0.059019428 0.042727776 0.0044264765 0.0033902552
000120 9a 1a 04 3d 0e ab 11 3d 00 6a aa 3d 0f a6 04 3d
       0.03225193 0.03556352 0.08320999 0.03238493
000130 a7 20 89 bd 67 6b a8 bd 90 c8 10 3d 8c 24 a5 3c
       -0.06695681 -0.0822361 0.03534752 0.020159028
000140 bb d5 0c bd 54 3a f4 bc eb ce 5b 3d cd 1c 7a 39
       -0.034383517 -0.02981297 0.05366413 0.00023852587
000150 87 81 3f 3c 94 49 55 3d 6f 03 96 bc d7 03 fa bc
       0.011688597 0.052072123 -0.018312184 -0.03051941
000160 02 42 b9 3d 4f 86 d3 3c 39 67 80 3d bf ca 46 bd
       0.09045793 0.02582088 0.06269688 -0.048533197
000170 64 4d 3d bc b3 5b 0b bd 10 c3 bc 3c 2c da b3 3d
       -0.011554096 -0.034022998 0.023042232 0.08781847
000180 ae b4 ad 3c 1c eb cb 3d da b1 c7 3d d5 9b a0 3d
       0.021204319 0.09956953 0.09750719 0.078422226
000190 7f 28 fb 3c df a1 51 3c 45 28 27 b9 39 b9 aa bd
       0.030658958 0.012794941 -0.00015941363 -0.0833611
0001a0 6d ac 60 3d bf fc 6b 3d 4f 1f 5a 3d 0f 1c 3d bc
       0.054851938 0.057614084 0.053252514 -0.011542334
0001b0 a0 fb 8f bd fd e3 b7 3c 66 80 70 bb ab 06 7a 3d
       -0.070304155 0.02244758 -0.0036697625 0.061041515
0001c0 56 f1 96 bd 8e c0 88 3d ec 9a bc 3d da 89 93 bd
       -0.0737025 0.06677352 0.092092365 -0.072040275
0001d0 8e b5 62 3d de 27 d1 3d c8 0d cd 3d 13 07 02 bd
       0.055348925 0.10212682 0.10012394 -0.031745028
0001e0 f2 23 26 3d c9 5f ae 3d f4 d7 d1 3d 9d 15 50 3c
       0.040561624 0.08514363 0.10246268 0.0127004655
0001f0 ea 48 d6 3d d5 00 83 bd fa d8 97 3d 15 5d a2 bd
       0.10463126 -0.06396643 0.07414432 -0.0792791
000200 31 72 71 bd ee 79 1e 3d 93 ee 9f bd e6 c8 59 bd
       -0.058946792 0.0386905 -0.07809176 -0.053170107
000210 38 41 54 3d 53 e4 b0 bc 27 ad 2e 3d 5a c5 b2 3d
       0.05182001 -0.021593248 0.0426456 0.08729048
000220 18 0a 94 bc 68 9d a4 3d 77 6f 8f bc 97 44 89 bc
       -0.01807122 0.08037835 -0.017509205 -0.016756339
000230 74 a5 26 bd 1c 56 9f 3c 66 3e 2c 3d 2b 13 7b 3c
       -0.040685132 0.01945024 0.042051695 0.015324394
000240 bc 8d 09 3d c1 d2 ae bd e7 51 e7 bc 5f a4 9d 3d
       0.033582434 -0.08536292 -0.028237296 0.07697367
000250 e5 2b 50 3d 25 89 c1 bd 5a 01 a4 3d a1 9a ae 3d
       0.05082311 -0.09449986 0.0800807 0.08525587
000260 49 06 91 3d d3 b4 6f bd 62 7a 81 3b b5 3d 01 3d
       0.07081277 -0.058522057 0.0039513567 0.03155299
000270 6e 6b 9d 3d 5b ff f0 3c 58 80 9e 3c 80 1f 92 bd
       0.07686506 0.029418638 0.019348308 -0.071349144
000280 d5 09 90 bd ec 67 c7 3d ea 31 b7 bd 55 a7 d2 bc
       -0.07033125 0.097366184 -0.08945067 -0.025714556
000290 41 39 6b bd ec a6 cc 3d 3b da e7 bb e5 59 b2 bd
       -0.05742765 0.09992775 -0.0070755756 -0.08708552
0002a0 a4 59 1d bd 9a 75 86 3d 47 43 87 3d b3 c8 34 3d
       -0.038415566 0.065653995 0.06604629 0.044136714
0002b0 fd 14 b5 bc 96 50 d3 3d 1c 66 a9 3b 47 6a 87 3d
       -0.022104735 0.10318105 0.005169643 0.06612068
0002c0 29 56 9c 3d 93 ad 6f bd 9f 31 6d 3c 58 ad ae 3d
       0.07633621 -0.058515143 0.014477163 0.085291564
0002d0 de d0 f4 3c 89 90 b6 bd 24 a9 57 bc 7f a9 b4 bc
       0.029884752 -0.08914287 -0.013162885 -0.022053478
0002e0 42 5c af bd 0a b2 93 bd b8 5b 4c 3d 56 59 21 3d
       -0.08562519 -0.07211693 0.049892157 0.039391838
0002f0 47 e4 4d bd b8 30 99 3d 69 8f a2 3d 25 73 20 bd
       -0.05026653 0.074799955 0.079375096 -0.03917231
000300 e1 90 3d bc 9c a6 21 bc 9d 48 33 bd 53 fd b9 3d
       -0.011570186 -0.009866383 -0.04377042 0.09081521
000310 fc 74 0b 3d a4 4b b5 bd c7 21 69 bd 26 fe 59 bd
       0.034047112 -0.08852318 -0.05691698 -0.05322089
000320 01 85 c2 3d 98 e9 b6 3d 9b 28 1d 3d 56 22 97 3d
       0.09498025 0.08931273 0.038368803 0.07379596
000330 e7 96 7d bb e1 82 03 3d ad f5 8b bd 32 b1 34 bc
       -0.003869468 0.032107238 -0.06833968 -0.011028575
000340 8e 72 81 bd 18 12 77 bd f0 f3 d0 3c 7b e4 d7 bd
       -0.06320678 -0.06031999 0.025506943 -0.10541626
000350 cd f6 d6 bc b5 4d 8d 3d cf 63 bb 3d ff 1a 90 bd
       -0.02624073 0.06899587 0.09149896 -0.07036399
000360 ea 10 99 3c cb ae 94 3d 23 3b cc bd 8f 08 db bd
       0.018684823 0.072599016 -0.09972217 -0.10694992
000370 dd bd bb 3d 66 aa b1 bd b8 1a a3 bd 4e fc ad 3d
       0.09167073 -0.08675079 -0.079640806 0.08495389
000380 9e f5 99 3d 0a 4d 0c 3d d3 2f 8b bd cc 71 34 3d
       0.07517551 0.034253158 -0.06796231 0.044053838
000390 de 45 20 bc d2 fd 5c 3d 2e 5a 6f 3d 62 55 60 3c
       -0.009782283 0.053953 0.05843561 0.013692232
0003a0 bd 81 90 3d 89 f6 c9 bc e6 f3 87 bd e0 f8 ce bb
       0.070559956 -0.02465369 -0.06638317 -0.0063162893
0003b0 c9 c2 9e bd b5 36 9f 3b 36 69 a3 3b 0b 30 89 bd
       -0.07751996 0.0048588165 0.0049869074 -0.066986166
0003c0 11 5e 7b 3c a4 dd 8f bd 7b bd fa 3c 53 15 6e 3c
       0.015342251 -0.070246965 0.03060793 0.014531451
0003d0 ea 86 59 3d e3 76 43 bb 17 40 9f bd 09 59 86 3d
       0.05310718 -0.00298255 -0.07775896 0.06559951
0003e0 7b d7 4f bc 68 bc c1 3d e1 c3 0c 3d b1 30 fe bc
       -0.012685652 0.09459764 0.034366492 -0.031029077
0003f0 0b b8 a4 bd 1e e5 33 3d 32 6c 14 bd 01 19 19 3d
       -0.08042916 0.043919675 -0.036235996 0.03737736

lstm.weight_hh_l0 f4 [400, 100]
000000 b0 40 7e bd ec 91 0c bc eb b1 c7 3c 4c b9 a6 3d
       -0.06207341 -0.008579712 0.02437683 0.08140811
000010 ac 30 a2 bd 51 4c db bc 02 7d 8b bd 5f 97 7f 3c
       -0.0791944 -0.026769789 -0.06810953 0.0156000545
000020 30 9c aa 3d f5 32 91 3d 1b 3f 49 bc 7b f4 52 bd
       0.08330572 0.070897974 -0.012283112 -0.051502686
000030 3e 0a f3 bc e9 cc 17 3d 30 c1 ae ba 3a 2d c8 bd
       -0.02966797 0.037060652 -0.0013332721 -0.09774251
000040 20 77 3c bd a5 6f 6f 3c 40 47 12 3d 07 c3 5c bd
       -0.046012044 0.0146140205 0.03571248 -0.05389693
000050 71 10 3e bd 95 20 39 3d 95 de b2 bd 14 1a e0 3c
       -0.0464024 0.04519709 -0.087338604 0.027356185
000060 69 e1 ae bc 86 8f 0d bd b4 da 86 bc 6a 75 0e 3c
       -0.021347718 -0.034560703 -0.016461708 0.008694986
000070 3f 81 5c 3d 40 8a 42 bd 30 68 9c 3c 00 e1 9f bd
       0.053834196 -0.047495127 0.01909265 -0.07806587
000080 57 b1 7a 3c 82 86 15 bd 26 ab c9 bd 85 36 1d bc
       0.01530107 -0.03650523 -0.09847097 -0.009595518
000090 8d ff 61 3d bb f7 04 3d 8d e7 8b bd 27 5c 0e 3d
       0.055175353 0.032462817 -0.06831274 0.034755852
0000a0 6e b8 93 3d 15 bb 92 3d 0e 5d 68 bd 0f 97 a3 bd
       0.072129115 0.07164589 -0.05672937 -0.079877965
0000b0 48 e4 57 3d 0c cd c0 bd 98 cd 97 3d d2 f7 94 3d
       0.05270794 -0.094141096 0.07412261 0.072738305
0000c0 c0 1e 86 3d 4e e1 3d 3c e3 0e 90 3d 36 a4 13 bd
       0.06548834 0.011589361 0.070340894 -0.036045276
0000d0 d6 eb b4 3d 4f e5 48 bc 9b 1d cd bd 74 17 df 3d
       0.08834045 -0.012261703 -0.100154124 0.10893145
0000e0 1c 83 a3 bd ac 02 5c 3c 94 b7 94 bd af 90 5f bd
       -0.079839915 0.013428371 -0.07261577 -0.05458134
0000f0 35 dc af 3c ee 0e c4 bd 0a 0b 8a bd 86 bf 19 bd
       0.021467308 -0.0957316 -0.06740387 -0.037536167
000100 91 61 63 bd df 50 b1 3d 45 e1 19 bd 7b ba 7f 3d
       -0.05551297 0.08658003 -0.03756835 0.0624337
000110 13 70 b0 3d 9b 9a 16 bd 93 90 82 3d c0 48 b3 bd
       0.086151265 -0.036768537 0.063752316 -0.0875411
000120 51 e3 cc 3d e5 93 3f 3d 8c 12 c3 3c 1b f6 ce bc
       0.10004295 0.046771903 0.023812555 -0.025263837
000130 d9 3f 1d 3d fe e2 b3 bb 81 6a df bd c3 f4 85 bd
       0.038390968 -0.005489706 -0.10908986 -0.06540825
000140 2f 82 ab bc d6 4b 9c 3d 4f cd da bd 81 aa d2 3c
       -0.0209361 0.07631652 -0.10683691 0.025716068
000150 bd ec 0c bd 90 81 05 bb 5c ca cf bd a1 f1 8c bc
       -0.03440546 -0.0020371415 -0.10146019 -0.017205061
000160 e3 c2 b1 bc 58 16 3c 3d 04 d9 63 bd 83 a7 5b 3d
       -0.021699375 0.045919746 -0.055626884 0.05362655
000170 a2 f7 f9 3c 68 c1 0d bd 94 de 87 3d 8e 32 b6 3c
       0.030513588 -0.034608275 0.0663425 0.022240903
000180 80 ed 7a bd a6 c0 8e 3d 54 9e c8 bc 77 f3 a7 3c
       -0.061261654 0.069703385 -0.02448956 0.020501835
000190 5e 1c 0f 3c d8 b1 9e 3d fb 54 a1 3d 68 83 8b bd
       0.008734791 0.07748765 0.07877537 -0.06812173
0001a0 94 2c a3 3d 3a ce 8c 3a 35 54 dd 3d b8 24 12 3d
       0.07967487 0.0010742613 0.10807077 0.03567955
0001b0 8b 15 8c 3d bc 2d 3a 3c 77 77 fd 3c 69 c9 e1 bb
       0.068400465 0.011363443 0.030940754 -0.006890465
0001c0 d2 1a 15 3c 91 e4 70 bd 85 5d 91 3d b6 9d 76 3a
       0.009100633 -0.058811728 0.070979156 0.0009407656
0001d0 5f 4a b0 3c a9 1d 4a 3c 64 65 33 3d 10 5c 8b 3d
       0.021519838 0.012336173 0.043797866 0.06804669
0001e0 36 40 69 bd a4 d3 c9 3d af 93 a9 bd 57 06 8c bd
       -0.056946002 0.0985482 -0.082801215 -0.06837147
0001f0 fd 1c db bd be 87 21 bd 77 f8 47 3b b8 b1 1c bd
       -0.106988885 -0.039436094 0.0030513087 -0.038255423
000200 f5 f9 c7 bc 01 47 83 3d ed 6f 89 bc 20 99 d6 bb
       -0.024411181 0.06410027 -0.016777003 -0.0065490156
000210 52 f2 69 bd 59 dc 4b bd 41 fd 81 bd 31 35 24 bc
       -0.05711586 -0.049770687 -0.063471325 -0.010022447
000220 07 56 4f bd 30 80 28 bd ef a1 d4 3d 80 29 a8 3d
       -0.05061915 -0.041137874 0.10382449 0.082110405
000230 22 cb cf bd 29 55 83 bd 55 50 e4 3c d2 86 74 3d
       -0.101461664 -0.064127274 0.027870337 0.059698887
000240 50 05 01 3d 42 eb 8f bd f5 ad a5 bd 48 b1 37 3d
       0.031499207 -0.07027294 -0.0808982 0.044846803
000250 02 8c 2a bb aa ca 2c 3d 39 23 5d 3d dc af 99 3d
       -0.0026023393 0.042185463 0.05398867 0.07504246
000260 c9 32 5b 3d a0 90 00 bd 81 6d 90 3c 4b 63 20 3c
       0.05351523 -0.031387925 0.01763034 0.009789298
000270 42 44 91 3d 4e 79 0f 3d a7 9c 9b bd 8f 72 b9 3d
       0.07093097 0.035027795 -0.075982384 0.090550534
000280 b8 61 9b 3d 6f bc c2 bd 07 4b 8f bd 47 ed 65 3d
       0.07586998 -0.09508597 -0.06996732 0.05613449
000290 bf a9 3f 3d 0d d3 7b 3d bc 2f 94 bc fe be 82 bd
       0.046792742 0.06148057 -0.018089168 -0.06384085
0002a0 bf f8 dc bd 41 9e ab bd b8 ea 61 bd 60 be d4 3d
       -0.10789632 -0.08379794 -0.055155486 0.10387874
0002b0 20 0e 03 bc b2 cc 92 3d a5 f8 79 bd bc ef 88 bd
       -0.007998973 0.07167949 -0.06102814 -0.06686351
0002c0 c4 50 db 3d c6 e0 4c 3d 44 3b 80 bd 7e 6a d6 bd
       0.10708764 0.05001905 -0.06261304 -0.104695305
0002d0 1d e8 05 3d 84 1d 88 bd ad 42 8f 3d 81 e2 59 bb
       0.032692064 -0.06646255 0.06995139 -0.003324658
0002e0 67 16 bd bd 62 bd c7 bd 85 65 73 bd dd 6e c9 bd
       -0.092327885 -0.09752919 -0.05942299 -0.098355986
0002f0 93 2b 8e bd 86 17 1f 3d e0 12 d6 bd 10 c5 c4 bc
       -0.06941905 0.038840793 -0.10452819 -0.024019748
000300 3c 97 8b bd 29 55 34 3d 8a 5b 91 bc 6e bb b8 3d
       -0.06815955 0.044026528 -0.017743845 0.090201244
000310 5d 92 28 3c 7d 4a 74 3d fe 19 bc 3c 28 fa d7 3d
       0.010288802 0.05964135 0.022961613 0.105457604
000320 4b 2d d7 3d 70 4d d1 3c 29 7b e8 3b fa 57 9a 3d
       0.10506686 0.02554962 0.00709476 0.075363114
000330 55 aa af 3d 4b 26 79 3c ce d2 d7 bc af 69 8b bd
       0.0857741 0.015206884 -0.026345637 -0.06807267
000340 97 8e 5b bd 96 68 16 3a 89 c4 b4 bd 5b 0d e4 3b
       -0.05360278 0.00057376304 -0.088265486 0.0069596
000350 e4 a3 e0 bc cf 1c a2 3d e1 68 99 bd 58 8c b8 bd
       -0.0274219 0.07915651 -0.07490707 -0.090111434
000360 ea 38 62 bd 4d 28 6a 3d f8 fd 08 3d 97 50 91 3d
       -0.05523006 0.05716734 0.03344533 0.070954494
000370 3a ae 91 3d c1 76 6a 3d f3 f3 bb bd d1 d2 2c bd
       0.07113309 0.05724216 -0.09177389 -0.042193238
000380 00 e3 a9 3c e7 6c b8 3c 92 99 bb 3d 9d 6b 79 bd
       0.020738125 0.022512866 0.091601506 -0.060893644
000390 50 d7 af 3d 8e 8d c2 3d b9 64 59 3d 92 61 6c 3d
       0.085859895 0.09499656 0.053074572 0.057710238
0003a0 12 d9 cd 3c 80 cc d2 3d e7 17 92 bd c5 73 28 bd
       0.025127921 0.102929115 -0.07133465 -0.04112603
0003b0 ff 95 98 bd 7e 2c 54 bd 68 47 ee 3c 8b 7d 43 bd
       -0.074504845 -0.051800244 0.029086784 -0.04772715
0003c0 84 50 82 bd 0a 0b b6 bd 84 ae 18 3d a2 c3 7f 3d
       -0.063630134 -0.08888824 0.037275806 0.06244243
0003d0 37 35 29 bd 0b 8b 1f 3c 25 e4 a9 bd 8a 16 9d bd
       -0.041310515 0.00973774 -0.08295468 -0.076703146
0003e0 5c 44 cf bd 61 9b 2e 3d d6 36 0c 3d 57 15 01 3d
       -0.101204604 0.04262865 0.034231983 0.031514492
0003f0 0e d6 90 bd e4 88 c3 bc b2 e6 b5 3c 16 ae 97 bd
       -0.07072078 -0.023868985 0.02220473 -0.07406251

lstm.bias_ih_l0 f4 [400]
000000 d6 8f 57 bd e2 90 5f 3d 73 20 a0 3d 77 42 58 bd
       -0.052627407 0.05458153 0.07818689 -0.05279776
000010 5a 41 5c bd da 6b 60 3d 56 52 8d 3c 92 64 5e bd
       -0.05377326 0.054790355 0.017251175 -0.05429513
000020 cc 93 a5 3b ee e9 96 bd 1a 96 41 bd 77 fa b0 3c
       0.005053019 -0.07368837 -0.04726229 0.021603806
000030 82 fb 89 bc 04 62 35 bd 6b a0 81 bd 82 52 2d bd
       -0.016843561 -0.044282928 -0.063294254 -0.042315014
000040 5b 1a 41 bd 28 21 b0 bc fb ac 0c bc c4 d9 86 bd
       -0.047144275 -0.021500185 -0.008586164 -0.06584504
000050 4c 2e 97 3d 53 87 58 bc ce 5e c2 3d 23 58 91 3c
       0.07381877 -0.013215858 0.09490739 0.017742222
000060 05 3a 94 bb f2 09 5a 3b 67 2c b5 3d b0 33 a3 bd
       -0.004523518 0.0033270088 0.0884636 -0.07968843
000070 56 bb 29 3c 86 c4 a4 3d bc 09 45 bb e4 2e ad bd
       0.010359606 0.08045296 -0.0030065617 -0.08456209
000080 24 10 86 3c 9b 55 a5 bd 34 e6 20 bb 17 cb 32 bd
       0.016365118 -0.080729686 -0.0024551274 -0.043650713
000090 d1 ea 3e 3c 06 13 0d 3c b7 dc 3f bd 31 d8 8d bd
       0.011652664 0.008610493 -0.04684135 -0.06926001
0000a0 db 46 50 bd 98 97 72 bd 52 1a 88 3d 0e d5 25 3d
       -0.050848823 -0.059226602 0.06645645 0.040486388
0000b0 95 ce 9f bc 6c 3b 31 3d e4 e6 7e 3d e2 48 b7 3c
       -0.019507686 0.04326956 0.062231913 0.02237362
0000c0 3e cf e1 bc 55 5b 21 3d 58 88 5f 3d a7 36 9a 3d
       -0.027564641 0.03939374 0.054573387 0.07529955
0000d0 17 16 b2 bd 41 0a aa 3d c0 63 81 bd 8d 5b 61 3d
       -0.086956196 0.08302737 -0.06317854 0.05501895
0000e0 4f 24 0d 3c f2 e3 88 bd 65 ac f9 bb 27 af a0 bc
       0.008614614 -0.06684102 -0.007619428 -0.01961477
0000f0 05 84 ba 3c f6 85 6d bd 5a 04 8a bd 7e 34 5b bd
       0.02276803 -0.057989083 -0.06739111 -0.053516857
000100 3b 79 cd bd f0 42 a6 bd d8 6d d0 bd 2a 97 a2 3d
       -0.100328885 -0.08118236 -0.10177201 0.079389885
000110 b3 70 72 3d bd d7 26 3d 5b 56 98 3d f2 32 10 3d
       0.05918951 0.040733088 0.07438346 0.035204835
000120 b7 33 6c bc bb c4 98 bc 4b 61 c0 3d 64 90 c6 3d
       -0.014416627 -0.018648496 0.09393557 0.09695509
000130 1c ff 61 3d 0e c1 91 bd 3f fb 92 3d 07 c0 ad bd
       0.055174932 -0.071169004 0.07176828 -0.08483892
000140 58 df 2b 3d de 14 99 3d 0b 40 75 3d f9 32 a8 bd
       0.041961044 0.07474683 0.05987553 -0.08212847
000150 f4 35 42 3d 90 9f 4a b9 0f a4 8f 3c bd 03 a0 bd
       0.047414735 -0.00019323663 0.017534284 -0.07813213
000160 09 ac 04 bd 27 48 55 38 f5 7f b9 3c c4 95 4f 3c
       -0.032390628 5.0850354e-05 0.022644022 0.012669984
000170 c2 86 c7 3d c9 be 2c bd 02 12 94 bd 88 42 66 bd
       0.097425 -0.042174134 -0.07229997 -0.056215793
000180 80 3b 98 3c d5 98 a0 bd ad 9a db 3d c0 5e 48 3d
       0.01858306 -0.078416504 0.107228614 0.048918486
000190 f0 37 a0 3b d6 73 c9 3d d4 67 23 3d 1f e5 9d 3d
       0.004889481 0.09836547 0.03989394 0.07709717
0001a0 f6 fc 92 bc 05 a8 ac 3d 96 fa 65 3d 2a 1b d8 39
       -0.017942887 0.08430485 0.05614718 0.0004121897
0001b0 71 da 4d bd f7 fe 94 bd 19 1f 27 3c cf 09 74 3c
       -0.05025715 -0.07275193 0.010200285 0.014894917
0001c0 49 1f 1d bc 4a 81 ee bc ea 58 cd bc 73 32 2a bd
       -0.0095899785 -0.029114384 -0.025066812 -0.04155202
0001d0 9a 24 25 bd 54 f2 a4 3c 59 64 28 bd ad 03 1a bc
       -0.04031811 0.020135082 -0.041111324 -0.00940029
0001e0 fc b2 5e bd b4 a7 c3 bd ed 99 06 3d 91 34 1a 3d
       -0.05436991 -0.09553471 0.03286164 0.037647787
0001f0 2b a1 2f bd 7a 6c 65 3d da 76 93 bd 77 e9 7e bd
       -0.04287831 0.056011654 -0.072004035 -0.06223437
000200 4f 36 93 bd 17 c2 8f bd 62 e7 8d bd 75 70 2a bd
       -0.07188093 -0.070194416 -0.069288984 -0.041611154
000210 08 65 91 3c d3 9b 26 3d 9f 90 90 bd b6 b6 05 3d
       0.01774837 0.04067595 -0.07058834 0.03264495
000220 a4 63 de bc 34 4c 43 bd f7 3e b7 bd 04 5d 62 3d
       -0.027147122 -0.047680095 -0.089475565 0.055264488
000230 d3 4d 53 3d 3d 51 9b 3d d0 01 e7 3c d9 8c 9f 3c
       0.05158789 0.07583854 0.028199106 0.019476341
000240 f6 0e b4 bd cc ea ba bc 77 f0 80 bd 47 5f 43 3c
       -0.08791916 -0.022817038 -0.06295865 0.011924571
000250 98 0e 74 39 e2 61 ea bb 5e 87 ae bd e1 6b c6 bd
       0.0002327509 -0.007152782 -0.08521913 -0.09688545
000260 b9 d4 cd bc e2 1f 13 bc 36 78 82 bc 90 bc 4c bd
       -0.025125848 -0.008979769 -0.015926462 -0.049984515
000270 5d 60 c5 3d 0c dd d1 bd 36 94 a4 bd b7 ee dd 3c
       0.096375205 -0.102472395 -0.080360815 0.027091367
000280 7f 0b a6 bd 3d c6 a0 3b 6d 9b 85 3d e6 11 ad 3d
       -0.081076615 0.0049064443 0.06523786 0.084506795
000290 35 10 95 bd eb 75 4b bb ac 47 c3 bd 19 f7 9e bc
       -0.07278482 -0.0031045626 -0.09535155 -0.019404935
0002a0 c4 76 bc 3d d5 2f 8d bd b1 e4 98 3c 78 50 a2 3d
       0.0920234 -0.06893889 0.018663736 0.079255044
0002b0 ec f8 81 3c 5b 7c 8b bc 04 e6 cc 3d e6 c3 7f bd
       0.015865766 -0.01702707 0.100048095 -0.062442683
0002c0 d0 d2 aa bb a4 8c 68 3d 43 4d 2b bd 38 d5 0c bc
       -0.005213119 0.05677475 -0.04182173 -0.008595757
0002d0 05 8d f8 3c ea 37 ae 3d d7 e6 ad 3d 1d 3f 97 3d
       0.03034068 0.085067585 0.08491295 0.07385085
0002e0 9c 91 af bd e3 93 93 bc 8d 8f 1b ba d3 33 d3 3c
       -0.08572695 -0.018014854 -0.00059341715 0.025781548
0002f0 70 31 98 bd 2c b2 c2 3d d7 05 a5 bd 43 d0 83 3c
       -0.074313045 0.0950664 -0.080577545 0.016090518
000300 f8 64 ba 3d 86 92 00 3c 2a 11 36 bd 08 66 71 bc
       0.091012895 0.007847434 -0.044449963 -0.014733799
000310 53 93 91 bd d0 07 a5 3c ac 9e 7d 3d c1 d3 78 3d
       -0.07108178 0.020145327 0.0619189 0.06074882
000320 66 97 a9 3d 05 b8 48 3c c0 22 09 3c 4f 80 2f bd
       0.0828083 0.012250905 0.008370101 -0.042846974
000330 8d e1 ba 3d bf eb 24 bd 21 73 bf 3d f0 c2 d4 bd
       0.09125052 -0.040263887 0.09348131 -0.10388744
000340 23 e9 93 bd 9f e6 8f 3c 8b 9d f6 3a 84 26 37 3d
       -0.07222202 0.017566023 0.0018815262 0.044714466
000350 a0 05 c4 3c d3 97 c2 bd 14 a3 98 bd d5 27 d5 bc
       0.023928463 -0.095016144 -0.0745298 -0.02601997
000360 b0 14 4a 3d 85 9a c3 bd 79 d8 d1 3b 6b bb b3 bd
       0.049336135 -0.09550957 0.0064039794 -0.087759815
000370 58 82 7c bd 34 ba a3 3d 1d 24 1b 3d b4 e5 a4 bb
       -0.061647743 0.079945 0.037876237 -0.0050322656
000380 3c 9d 22 3a c8 17 bd bd 94 c6 ce 3d 2e 4c 20 bd
       0.00062032393 -0.092330515 0.100964695 -0.03913515
000390 b1 04 e0 3c 69 4a 06 3d 47 a4 d4 bd 23 5f a9 3d
       0.027345987 0.032785807 -0.10382896 0.08270099
0003a0 b4 e2 b0 3d 34 d8 a2 3d f2 7c 36 bd 79 1e 62 bd
       0.0863699 0.07951394 -0.04455275 -0.055204842
0003b0 84 5d 94 3d 04 04 53 3d 93 e7 0a 39 e0 24 a8 bb
       0.07244399 0.0515175 0.00013246974 -0.005131349
0003c0 7b 28 f4 bc 44 a3 2e bd 89 13 92 bd f4 b9 9c 3c
       -0.029804459 -0.04263617 -0.07132632 0.019131638
0003d0 de 22 49 bd c6 17 16 bc d1 a8 b1 3d d5 6e 92 bc
       -0.049105518 -0.0091609415 0.08674777 -0.017875114
0003e0 2b 41 7b bd 2a 27 d6 bc fa bb 87 bd a9 f2 72 3d
       -0.061341446 -0.026141722 -0.066276506 0.05931345
0003f0 3f ab f1 bc 2f 96 56 3d 04 92 e9 3c 81 3a 4d 3c
       -0.029500602 0.05238932 0.028512008 0.012526155

lstm.bias_hh_l0 f4 [400]
000000 3e fb ba 3d 65 79 1f bd a5 ac b3 3d 6d 94 4a 3d
       0.09129952 -0.03893413 0.08773164 0.049457956
000010 78 7b aa 3d e4 66 4e 3c 58 17 9f 3d 02 dc 8e bd
       0.08324331 0.012597773 0.07768124 -0.06975557
000020 99 42 91 3d 65 0d 71 bd 35 b4 82 3c 35 27 bd 3d
       0.070927806 -0.058850665 0.01595507 0.09235994
000030 fb 96 0b bd cc a0 9b bd b8 9d 04 bd bb fc b7 3d
       -0.034079533 -0.07599029 -0.032376975 0.089837514
000040 2c 98 8a 3d ec 8c d6 3d 4c 52 c6 bc 7a a6 45 3d
       0.06767306 0.104760975 -0.024209164 0.048254468
000050 cc da b3 3d c1 48 9c bd 48 94 17 bd 73 3f ad bc
       0.087819666 -0.07631064 -0.037006646 -0.021148419
000060 b4 ba 10 3d 60 d4 16 3d cf 45 09 3c 5a da cb bc
       0.035334304 0.03682363 0.00837846 -0.024884392
000070 78 19 3e 3d b2 39 a9 3d 02 69 13 3d 51 22 6d 3d
       0.046411008 0.08262958 0.035988815 0.057894055
000080 ad d7 dd 3d 89 78 6a 3d 4c 82 e4 bc 9c 74 04 3d
       0.108321525 0.057243858 -0.027894162 0.03233777
000090 a4 6e 1e bd ce 69 72 bd f8 17 89 3d 6f 8c 83 bd
       -0.038679734 -0.059182934 0.06694025 -0.0642327
0000a0 96 1b 45 3d ad 4e 03 bc 8a b3 1f 3d 5f e7 8b 3d
       0.04812201 -0.008014363 0.03898958 0.0683124
0000b0 1f 38 5f 3d 90 54 83 3c d9 0c a2 bc a3 f9 96 3d
       0.05449688 0.016031533 -0.019781517 0.07371833
0000c0 a3 17 75 bd e0 43 3e bd 60 d2 5e 3d 18 60 4d 3b
       -0.059836995 -0.04645145 0.054399848 0.0031337794
0000d0 b6 f9 f1 3c df 2c ad 3d 6e 32 b2 3d 6a 66 ab bd
       0.029538017 0.08455824 0.08701025 -0.08369143
0000e0 fd 29 b5 bc 62 d1 a7 bd c1 a8 7a bd ee 56 9f 3c
       -0.022114748 -0.081942335 -0.061196093 0.019450631
0000f0 5c 02 7a bd fa 81 d3 bc 00 39 0b bd 34 db d6 3c
       -0.061037406 -0.025818814 -0.033989906 0.026227571
000100 61 0d 1e 3d d8 3e 84 bd 5e 47 8d 3d 6b 61 a8 bd
       0.038586978 -0.06457299 0.06898378 -0.08221706
000110 0b 43 90 3d eb f0 9b 3d 07 59 fb 3c 45 fa 66 3d
       0.070440374 0.07614311 0.0306821 0.05639102
000120 99 9e a3 3c b8 e4 84 3d e8 21 1f 3d 88 8e 5d 3d
       0.019973086 0.06488937 0.038850695 0.054091007
000130 1c 8d 2d bd 41 9b 06 3d 6e 0f 8d bd a7 6f 36 bd
       -0.0423709 0.032862905 -0.068877086 -0.044540074
000140 2c e3 a9 bd 06 20 01 bd 47 e4 39 bd e6 85 e8 3c
       -0.08295283 -0.03152468 -0.045383718 0.02838416
000150 e3 52 44 bc 63 fa 05 bc 56 68 73 bd f5 d3 41 bd
       -0.011982652 -0.008177373 -0.059425674 -0.04732128
000160 bb 62 cc bb 33 63 b8 bc 01 3e b7 3c 02 61 b3 bb
       -0.0062373555 -0.02250824 0.022368433 -0.0054742107
000170 48 f1 d8 3c 80 23 cb bd 14 0e b5 bc 51 3a aa bd
       0.02648224 -0.099188805 -0.02210144 -0.08311904
000180 d1 4c b3 bd 9c 9e cf bd f3 b2 12 3d 1d 3a 37 bd
       -0.08754886 -0.10137674 0.03581519 -0.044733156
000190 a9 0e ca 3d 8d bf 8e bd 23 1a 89 3c 73 2b b8 3c
       0.098660775 -0.06970129 0.016736096 0.022481656
0001a0 33 42 a0 3d 32 d8 7a 3d b8 0e 35 bc ae 1a 1a 3d
       0.078251265 0.061241336 -0.0110508725 0.0376231
0001b0 bd 68 4b 3d f4 5b 82 bd 24 f8 9f bd 37 4f d4 bd
       0.049660433 -0.06365195 -0.07811001 -0.103666715
0001c0 7c 98 01 3d 93 bb cb 3b 95 43 f7 bc 5e e4 51 bc
       0.03163956 0.006217429 -0.030183593 -0.012810795
0001d0 49 a7 22 bc 49 d4 98 bd ab 75 87 3d 82 d7 c9 bd
       -0.009927579 -0.07462365 0.0661424 -0.09855558
0001e0 d1 da c0 bd df 11 cd 3c c1 22 e0 3d 71 0c c9 3d
       -0.09416736 0.025032936 0.10944129 0.09816826
0001f0 2a 5c 4c bc 45 f7 b6 bd 79 a0 25 3d 12 6c 33 3c
       -0.0124731455 -0.08933882 0.04043624 0.010951059
000200 fd d2 c9 3c 11 94 59 bc 5d ca 95 3d 7c 08 d8 3d
       0.02463674 -0.013279931 0.07313988 0.10548493
000210 f4 0b 93 bd 2a a1 ba bd 75 f9 2b bd bd 83 80 bc
       -0.07180014 -0.09112771 -0.041985948 -0.015687818
000220 81 f8 df bc 17 52 2c 3d f7 69 af 3d f1 fe f8 bc
       -0.027340176 0.042070474 0.08565133 -0.030395003
000230 d8 e4 cc 3d e8 9c 83 bd 40 c5 ac 3d fa 7a f5 3c
       0.10004586 -0.06426412 0.0843606 0.029965866
000240 47 ec 2b bc 83 a8 1f bc 53 7c 48 bd 85 96 b9 bc
       -0.010493345 -0.009744766 -0.04894669 -0.022654781
000250 fa 28 8d 3c 27 2f 74 3d a1 9f be 3d 67 38 08 3d
       0.017231453 0.05961528 0.093077905 0.033256914
000260 16 33 11 bd 72 cb af bc e8 a9 4e 3d 84 e2 ff bc
       -0.03544911 -0.021459315 0.050455004 -0.03123594
000270 a9 ee c7 3d f8 9f aa 3c ec 02 ae 3d fb 01 83 bd
       0.09762318 0.020828232 0.08496651 -0.06396862
000280 70 32 9b 3d 20 4e 3a bd c7 d8 8e bd 52 bc 43 bd
       0.075779796 -0.045484662 -0.06974941 -0.047787018
000290 3c 6b 12 bd 44 b9 10 3c d4 db 6a 3c 98 04 34 bb
       -0.035746798 0.008833233 0.014334638 -0.0027468558
0002a0 84 54 6a 3d 84 ef d7 3d ce fa 20 bd 58 15 41 bd
       0.057209507 0.10543731 -0.039301686 -0.047139496
0002b0 54 e4 ad bd 1e c9 84 3d a6 cc 85 bd 5b 9c 40 bc
       -0.08490816 0.064836726 -0.06533174 -0.011756028
0002c0 81 e4 c1 bb 61 b1 c8 3d 24 e4 98 bd d1 4f 94 3d
       -0.0059171324 0.09799457 -0.07465389 0.07241786
0002d0 14 ef fc 3c 6b 1d 60 bd 55 fd ce 3d 59 fd bb 3d
       0.03087572 -0.054715555 0.10106913 0.091791816
0002e0 46 d4 8c bc 57 c9 75 3d 49 08 c2 bd da 20 2f bd
       -0.017191064 0.060006466 -0.094742365 -0.04275594
0002f0 2b f7 86 bd 47 6c 2f bd bf da 96 3d 84 59 60 3d
       -0.06590112 -0.04282787 0.07365941 0.05477287
000300 a3 a5 93 bd 07 23 37 bd 42 d3 0a 3d 4b 42 95 bd
       -0.07209327 -0.04471114 0.033892877 -0.07288035
000310 71 f1 b1 3d 2f 13 a8 3d 2c b5 ca 3d 1e 9d b7 bd
       0.086886294 0.08206784 0.09897837 -0.089655146
000320 09 63 42 3d 8e 2c a7 bd fa 2b 0a bb 13 de c3 3c
       0.04745773 -0.08162795 -0.002108334 0.023909604
000330 cb dd 71 3c 52 5a 7c bd 47 08 aa 3d 56 0d 9e 3d
       0.014762352 -0.061609574 0.0830236 0.077173874
000340 21 3a b8 bd a0 f6 e5 bb 1a 2e e8 bc ec 4e b5 3d
       -0.08995462 -0.0070179254 -0.028342295 0.08852944
000350 65 b9 85 3d 09 27 10 3d 35 54 a4 3c 7d 04 09 3c
       0.06529502 0.035193477 0.020059684 0.0083628865
000360 7b fc c8 bd c8 9b 61 bd f0 38 b7 bc 31 5c 4d bd
       -0.09813782 -0.055080205 -0.022366017 -0.05013675
000370 68 bb 68 bd f2 0d 91 3c 5f 9c 25 bd 17 90 07 bd
       -0.05681935 0.017706845 -0.04043233 -0.0330964
000380 ad e9 97 bd 67 62 aa 3d ca e4 1a 3d b6 4b bf bd
       -0.07417617 0.0831955 0.037815847 -0.093406126
000390 08 de ed 3c 5b 16 33 3c e8 f8 d1 bc 2c ee cd bc
       0.029036537 0.010930623 -0.025631383 -0.025137983
0003a0 3e 49 d7 bd b6 23 dd 3c 78 5e 90 bb c5 c3 d7 3d
       -0.10512017 0.026994567 -0.004405793 0.10535387
0003b0 a4 10 29 bd e3 61 12 bc 3a 2a 72 3c 78 2b fb bc
       -0.041275635 -0.008934471 0.014780575 -0.030660376
0003c0 35 16 27 bd cb 29 60 bd 43 a9 d0 bd f8 79 5d 3d
       -0.040792663 -0.054727357 -0.10188534 0.054071397
0003d0 48 71 ea bc 0d cb f4 bc bb 55 0c 3d b0 16 cf bd
       -0.02861847 -0.029881978 0.034261446 -0.10111749
0003e0 c2 5f 1d 3c b5 ea 81 3c 81 cf da 3d 06 f5 93 bd
       0.00960535 0.015858987 0.106841095 -0.07224469
0003f0 36 a1 83 bd 9f 58 e3 bb c9 f9 ba bd 8e b6 d5 3d
       -0.06427233 -0.0069380547 -0.09129674 0.1043521

fc.weight f4 [1, 100]
000000 16 93 92 bc 8b 01 47 bc 27 a6 a4 bd a7 26 cf bd
       -0.017892402 -0.012146364 -0.080395035 -0.10114794
000010 88 a9 90 3d 82 a2 b6 bd ca e9 b8 3d c9 04 da bc
       0.070635855 -0.08917715 0.09028967 -0.02661361
000020 69 53 06 bd f5 74 20 bd f7 ef ce bd 7f 33 a7 bd
       -0.03279439 -0.03917404 -0.101043634 -0.08164119
000030 72 40 b4 bd c9 76 c7 bd 83 3d 76 3d d8 64 d8 bd
       -0.088013545 -0.09739453 0.060117256 -0.105661094
000040 e6 e1 43 bd 55 8c b9 bd 55 35 1b 3d 98 24 b7 3d
       -0.047822855 -0.09059969 0.03789266 0.089425266
000050 e2 44 b5 3d 49 ae cc bb 78 6f 39 bd 77 a1 2a 3d
       0.08851029 -0.0062463623 -0.04527232 0.04165789
000060 7e 78 a0 bd 5e 49 2f bd 00 ab 08 3d 03 3b 43 bd
       -0.07835482 -0.042794578 0.033366203 -0.0476637
000070 d0 2f 37 bd 9c 70 bf 3d d1 d7 84 bc 48 54 d7 3d
       -0.044723332 0.093476504 -0.01621619 0.10514122
000080 c6 e3 47 bd 86 ba b0 bd 8f 5e d5 3c 37 66 68 3d
       -0.048801206 -0.086293265 0.026046066 0.056738105
000090 37 a6 ce bc 7d 26 cd bb 00 28 89 bd d0 8a 66 3d
       -0.025225742 -0.0062606917 -0.066970825 0.056284726
0000a0 68 6e d5 bc b5 9e ae bc 05 5d 3a bd 7c de 48 3b
       -0.026053622 -0.021315912 -0.045498867 0.003065019
0000b0 4a 9f d7 3b 07 5e b8 bd 38 e2 e1 3c 63 19 cd bd
       0.006580268 -0.09002309 0.02757369 -0.10014608
0000c0 f7 78 a3 3d fa d6 dc 3c 71 3e 63 3d 29 3c 24 bd
       0.079820566 0.026957978 0.05547947 -0.040096436
0000d0 0e eb 2c 3d 2f e8 91 bd eb b0 51 3c da d5 cd 3c
       0.042216353 -0.07124364 0.012798528 0.025126386
0000e0 1d f0 b2 bd 7f 60 af 3d 6f 6a 8c 3d 5d af ae bd
       -0.08737204 0.08563327 0.06856238 -0.08529542
0000f0 8e 40 d7 bd 5a 28 6e 3d d7 6a de bd 91 b0 2c bd
       -0.1051036 0.05814395 -0.10860222 -0.042160574
000100 ef f8 66 bd 23 20 44 3b c6 55 66 3b c1 10 85 3d
       -0.056389745 0.0029926382 0.003514634 0.06497336
000110 a3 90 a3 ba 7d 6e 76 bd 7c 77 36 3d 33 5b 98 3d
       -0.0012479018 -0.060163964 0.044547543 0.0743927
000120 72 d9 bd 3d cd 8d 39 3d 58 51 52 3c 40 02 97 bc
       0.0926999 0.045301247 0.012836777 -0.01843369
000130 06 8d 6e 3d 10 83 b3 bd af c7 a5 bd fe 6c 63 bd
       0.05823996 -0.087652326 -0.08094727 -0.055523865
000140 b5 bf 90 bc 56 18 d3 3d 89 02 90 bd 87 0a 9d 3d
       -0.017669538 0.10307376 -0.070317335 0.076680236
000150 82 c1 94 bd 8c a9 a2 bd c0 99 e2 3c 7a 95 a1 bd
       -0.07263471 -0.07942495 0.027661204 -0.078898385
000160 d1 1f 5f 3d b3 a4 9c bd 98 c2 9e bd 5c 40 bd 3d
       0.054473702 -0.076486014 -0.077519596 0.09240791
000170 68 ea f0 bc dc de 07 bd 46 1b 77 bd 0b f8 e5 bc
       -0.029408649 -0.03317152 -0.060328744 -0.028072378
000180 d4 55 ba 3d a8 33 9c 3c 0c 3e a7 3c 73 4d 5d 3d
       0.09098402 0.0190676 0.020415328 0.05402894
